…
2022-06-17 13:11:46.675371: I tensorflow/compiler/xla/service/service.cc:168] XLA service 0x1e20d2414e0 initialized for platform CUDA (this does not guarantee that XLA will be used). Devices:
2022-06-17 13:11:46.675591: I tensorflow/compiler/xla/service/service.cc:176]   StreamExecutor device (0): Quadro RTX 4000, Compute Capability 7.5
Model: "functional_1"
_________________________________________________________________
Layer (type)                 Output Shape              Param #   
=================================================================
input_1 (InputLayer)         [(None, 10, 38)]          0         
_________________________________________________________________
conv1d (Conv1D)              (None, 10, 6)             1602      
_________________________________________________________________
average_pooling1d (AveragePo (None, 3, 6)              0         
_________________________________________________________________
conv1d_1 (Conv1D)            (None, 3, 12)             516       
_________________________________________________________________
average_pooling1d_1 (Average (None, 1, 12)             0         
_________________________________________________________________
flatten (Flatten)            (None, 12)                0         
_________________________________________________________________
dense (Dense)                (None, 4)                 52        
=================================================================
Total params: 2,170
Trainable params: 2,170
Non-trainable params: 0
_________________________________________________________________
None
2022-06-17 13:11:47.011614: I tensorflow/core/profiler/lib/profiler_session.cc:164] Profiler session started.
2022-06-17 13:11:47.012954: I tensorflow/core/profiler/internal/gpu/cupti_tracer.cc:1391] Profiler found 1 GPUs
…
This property should not be used in TensorFlow 2.0, as updates are applied automatically.
Model: "functional_3"
__________________________________________________________________________________________________
Layer (type)                    Output Shape         Param #     Connected to                     
==================================================================================================
input_2 (InputLayer)            [(None, 10, 38)]     0                                            
__________________________________________________________________________________________________
conv1d_2 (Conv1D)               (None, 10, 64)       19520       input_2[0][0]                    
__________________________________________________________________________________________________
batch_normalization (BatchNorma (None, 10, 64)       256         conv1d_2[0][0]                   
__________________________________________________________________________________________________
activation (Activation)         (None, 10, 64)       0           batch_normalization[0][0]        
__________________________________________________________________________________________________
conv1d_3 (Conv1D)               (None, 10, 64)       20544       activation[0][0]                 
__________________________________________________________________________________________________
batch_normalization_1 (BatchNor (None, 10, 64)       256         conv1d_3[0][0]                   
__________________________________________________________________________________________________
activation_1 (Activation)       (None, 10, 64)       0           batch_normalization_1[0][0]      
__________________________________________________________________________________________________
conv1d_5 (Conv1D)               (None, 10, 64)       2496        input_2[0][0]                    
__________________________________________________________________________________________________
conv1d_4 (Conv1D)               (None, 10, 64)       12352       activation_1[0][0]               
__________________________________________________________________________________________________
batch_normalization_3 (BatchNor (None, 10, 64)       256         conv1d_5[0][0]                   
__________________________________________________________________________________________________
batch_normalization_2 (BatchNor (None, 10, 64)       256         conv1d_4[0][0]                   
__________________________________________________________________________________________________
add (Add)                       (None, 10, 64)       0           batch_normalization_3[0][0]      
                                                                 batch_normalization_2[0][0]      
__________________________________________________________________________________________________
activation_2 (Activation)       (None, 10, 64)       0           add[0][0]                        
__________________________________________________________________________________________________
conv1d_6 (Conv1D)               (None, 10, 128)      65664       activation_2[0][0]               
__________________________________________________________________________________________________
batch_normalization_4 (BatchNor (None, 10, 128)      512         conv1d_6[0][0]                   
__________________________________________________________________________________________________
activation_3 (Activation)       (None, 10, 128)      0           batch_normalization_4[0][0]      
__________________________________________________________________________________________________
conv1d_7 (Conv1D)               (None, 10, 128)      82048       activation_3[0][0]               
__________________________________________________________________________________________________
batch_normalization_5 (BatchNor (None, 10, 128)      512         conv1d_7[0][0]                   
__________________________________________________________________________________________________
activation_4 (Activation)       (None, 10, 128)      0           batch_normalization_5[0][0]      
__________________________________________________________________________________________________
conv1d_9 (Conv1D)               (None, 10, 128)      8320        activation_2[0][0]               
__________________________________________________________________________________________________
conv1d_8 (Conv1D)               (None, 10, 128)      49280       activation_4[0][0]               
__________________________________________________________________________________________________
batch_normalization_7 (BatchNor (None, 10, 128)      512         conv1d_9[0][0]                   
__________________________________________________________________________________________________
batch_normalization_6 (BatchNor (None, 10, 128)      512         conv1d_8[0][0]                   
__________________________________________________________________________________________________
add_1 (Add)                     (None, 10, 128)      0           batch_normalization_7[0][0]      
                                                                 batch_normalization_6[0][0]      
__________________________________________________________________________________________________
activation_5 (Activation)       (None, 10, 128)      0           add_1[0][0]                      
__________________________________________________________________________________________________
conv1d_10 (Conv1D)              (None, 10, 128)      131200      activation_5[0][0]               
__________________________________________________________________________________________________
batch_normalization_8 (BatchNor (None, 10, 128)      512         conv1d_10[0][0]                  
__________________________________________________________________________________________________
activation_6 (Activation)       (None, 10, 128)      0           batch_normalization_8[0][0]      
__________________________________________________________________________________________________
conv1d_11 (Conv1D)              (None, 10, 128)      82048       activation_6[0][0]               
__________________________________________________________________________________________________
batch_normalization_9 (BatchNor (None, 10, 128)      512         conv1d_11[0][0]                  
__________________________________________________________________________________________________
activation_7 (Activation)       (None, 10, 128)      0           batch_normalization_9[0][0]      
__________________________________________________________________________________________________
conv1d_12 (Conv1D)              (None, 10, 128)      49280       activation_7[0][0]               
__________________________________________________________________________________________________
batch_normalization_11 (BatchNo (None, 10, 128)      512         activation_5[0][0]               
__________________________________________________________________________________________________
batch_normalization_10 (BatchNo (None, 10, 128)      512         conv1d_12[0][0]                  
__________________________________________________________________________________________________
add_2 (Add)                     (None, 10, 128)      0           batch_normalization_11[0][0]     
                                                                 batch_normalization_10[0][0]     
__________________________________________________________________________________________________
activation_8 (Activation)       (None, 10, 128)      0           add_2[0][0]                      
__________________________________________________________________________________________________
global_average_pooling1d (Globa (None, 128)          0           activation_8[0][0]               
__________________________________________________________________________________________________
dense_1 (Dense)                 (None, 4)            516         global_average_pooling1d[0][0]   
==================================================================================================
Total params: 528,388
Trainable params: 525,828
Non-trainable params: 2,560
__________________________________________________________________________________________________
None
2022-06-17 13:22:28.058748: I tensorflow/core/profiler/lib/profiler_session.cc:164] Profiler session started.
…
1667/1667 [==============================] - 33s 20ms/step - loss: 8.1412e-04 - accuracy: 0.9999 - val_loss: 77.6752 - val_accuracy: 0.5174
Model: "functional_7"
__________________________________________________________________________________________________
Layer (type)                    Output Shape         Param #     Connected to                     
==================================================================================================
input_4 (InputLayer)            [(None, 10, 38)]     0                                            
__________________________________________________________________________________________________
conv1d_45 (Conv1D)              (None, 10, 32)       1216        input_4[0][0]                    
__________________________________________________________________________________________________
max_pooling1d_6 (MaxPooling1D)  (None, 10, 38)       0           input_4[0][0]                    
__________________________________________________________________________________________________
conv1d_46 (Conv1D)              (None, 10, 32)       40960       conv1d_45[0][0]                  
__________________________________________________________________________________________________
conv1d_47 (Conv1D)              (None, 10, 32)       20480       conv1d_45[0][0]                  
__________________________________________________________________________________________________
conv1d_48 (Conv1D)              (None, 10, 32)       10240       conv1d_45[0][0]                  
__________________________________________________________________________________________________
conv1d_49 (Conv1D)              (None, 10, 32)       1216        max_pooling1d_6[0][0]            
__________________________________________________________________________________________________
concatenate_6 (Concatenate)     (None, 10, 128)      0           conv1d_46[0][0]                  
                                                                 conv1d_47[0][0]                  
                                                                 conv1d_48[0][0]                  
                                                                 conv1d_49[0][0]                  
__________________________________________________________________________________________________
batch_normalization_20 (BatchNo (None, 10, 128)      512         concatenate_6[0][0]              
__________________________________________________________________________________________________
activation_17 (Activation)      (None, 10, 128)      0           batch_normalization_20[0][0]     
__________________________________________________________________________________________________
conv1d_50 (Conv1D)              (None, 10, 32)       4096        activation_17[0][0]              
__________________________________________________________________________________________________
max_pooling1d_7 (MaxPooling1D)  (None, 10, 128)      0           activation_17[0][0]              
__________________________________________________________________________________________________
conv1d_51 (Conv1D)              (None, 10, 32)       40960       conv1d_50[0][0]                  
__________________________________________________________________________________________________
conv1d_52 (Conv1D)              (None, 10, 32)       20480       conv1d_50[0][0]                  
__________________________________________________________________________________________________
conv1d_53 (Conv1D)              (None, 10, 32)       10240       conv1d_50[0][0]                  
__________________________________________________________________________________________________
conv1d_54 (Conv1D)              (None, 10, 32)       4096        max_pooling1d_7[0][0]            
__________________________________________________________________________________________________
concatenate_7 (Concatenate)     (None, 10, 128)      0           conv1d_51[0][0]                  
                                                                 conv1d_52[0][0]                  
                                                                 conv1d_53[0][0]                  
                                                                 conv1d_54[0][0]                  
__________________________________________________________________________________________________
batch_normalization_21 (BatchNo (None, 10, 128)      512         concatenate_7[0][0]              
__________________________________________________________________________________________________
activation_18 (Activation)      (None, 10, 128)      0           batch_normalization_21[0][0]     
__________________________________________________________________________________________________
conv1d_55 (Conv1D)              (None, 10, 32)       4096        activation_18[0][0]              
__________________________________________________________________________________________________
max_pooling1d_8 (MaxPooling1D)  (None, 10, 128)      0           activation_18[0][0]              
__________________________________________________________________________________________________
conv1d_56 (Conv1D)              (None, 10, 32)       40960       conv1d_55[0][0]                  
__________________________________________________________________________________________________
conv1d_57 (Conv1D)              (None, 10, 32)       20480       conv1d_55[0][0]                  
__________________________________________________________________________________________________
conv1d_58 (Conv1D)              (None, 10, 32)       10240       conv1d_55[0][0]                  
__________________________________________________________________________________________________
conv1d_59 (Conv1D)              (None, 10, 32)       4096        max_pooling1d_8[0][0]            
__________________________________________________________________________________________________
concatenate_8 (Concatenate)     (None, 10, 128)      0           conv1d_56[0][0]                  
                                                                 conv1d_57[0][0]                  
                                                                 conv1d_58[0][0]                  
                                                                 conv1d_59[0][0]                  
__________________________________________________________________________________________________
conv1d_60 (Conv1D)              (None, 10, 128)      4864        input_4[0][0]                    
__________________________________________________________________________________________________
batch_normalization_22 (BatchNo (None, 10, 128)      512         concatenate_8[0][0]              
__________________________________________________________________________________________________
batch_normalization_23 (BatchNo (None, 10, 128)      512         conv1d_60[0][0]                  
__________________________________________________________________________________________________
activation_19 (Activation)      (None, 10, 128)      0           batch_normalization_22[0][0]     
__________________________________________________________________________________________________
add_5 (Add)                     (None, 10, 128)      0           batch_normalization_23[0][0]     
                                                                 activation_19[0][0]              
__________________________________________________________________________________________________
activation_20 (Activation)      (None, 10, 128)      0           add_5[0][0]                      
__________________________________________________________________________________________________
conv1d_61 (Conv1D)              (None, 10, 32)       4096        activation_20[0][0]              
__________________________________________________________________________________________________
max_pooling1d_9 (MaxPooling1D)  (None, 10, 128)      0           activation_20[0][0]              
__________________________________________________________________________________________________
conv1d_62 (Conv1D)              (None, 10, 32)       40960       conv1d_61[0][0]                  
__________________________________________________________________________________________________
conv1d_63 (Conv1D)              (None, 10, 32)       20480       conv1d_61[0][0]                  
__________________________________________________________________________________________________
conv1d_64 (Conv1D)              (None, 10, 32)       10240       conv1d_61[0][0]                  
__________________________________________________________________________________________________
conv1d_65 (Conv1D)              (None, 10, 32)       4096        max_pooling1d_9[0][0]            
__________________________________________________________________________________________________
concatenate_9 (Concatenate)     (None, 10, 128)      0           conv1d_62[0][0]                  
                                                                 conv1d_63[0][0]                  
                                                                 conv1d_64[0][0]                  
                                                                 conv1d_65[0][0]                  
__________________________________________________________________________________________________
batch_normalization_24 (BatchNo (None, 10, 128)      512         concatenate_9[0][0]              
__________________________________________________________________________________________________
activation_21 (Activation)      (None, 10, 128)      0           batch_normalization_24[0][0]     
__________________________________________________________________________________________________
conv1d_66 (Conv1D)              (None, 10, 32)       4096        activation_21[0][0]              
__________________________________________________________________________________________________
max_pooling1d_10 (MaxPooling1D) (None, 10, 128)      0           activation_21[0][0]              
__________________________________________________________________________________________________
conv1d_67 (Conv1D)              (None, 10, 32)       40960       conv1d_66[0][0]                  
__________________________________________________________________________________________________
conv1d_68 (Conv1D)              (None, 10, 32)       20480       conv1d_66[0][0]                  
__________________________________________________________________________________________________
conv1d_69 (Conv1D)              (None, 10, 32)       10240       conv1d_66[0][0]                  
__________________________________________________________________________________________________
conv1d_70 (Conv1D)              (None, 10, 32)       4096        max_pooling1d_10[0][0]           
__________________________________________________________________________________________________
concatenate_10 (Concatenate)    (None, 10, 128)      0           conv1d_67[0][0]                  
                                                                 conv1d_68[0][0]                  
                                                                 conv1d_69[0][0]                  
                                                                 conv1d_70[0][0]                  
__________________________________________________________________________________________________
batch_normalization_25 (BatchNo (None, 10, 128)      512         concatenate_10[0][0]             
__________________________________________________________________________________________________
activation_22 (Activation)      (None, 10, 128)      0           batch_normalization_25[0][0]     
__________________________________________________________________________________________________
conv1d_71 (Conv1D)              (None, 10, 32)       4096        activation_22[0][0]              
__________________________________________________________________________________________________
max_pooling1d_11 (MaxPooling1D) (None, 10, 128)      0           activation_22[0][0]              
__________________________________________________________________________________________________
conv1d_72 (Conv1D)              (None, 10, 32)       40960       conv1d_71[0][0]                  
__________________________________________________________________________________________________
conv1d_73 (Conv1D)              (None, 10, 32)       20480       conv1d_71[0][0]                  
__________________________________________________________________________________________________
conv1d_74 (Conv1D)              (None, 10, 32)       10240       conv1d_71[0][0]                  
__________________________________________________________________________________________________
conv1d_75 (Conv1D)              (None, 10, 32)       4096        max_pooling1d_11[0][0]           
__________________________________________________________________________________________________
concatenate_11 (Concatenate)    (None, 10, 128)      0           conv1d_72[0][0]                  
                                                                 conv1d_73[0][0]                  
                                                                 conv1d_74[0][0]                  
                                                                 conv1d_75[0][0]                  
__________________________________________________________________________________________________
conv1d_76 (Conv1D)              (None, 10, 128)      16384       activation_20[0][0]              
__________________________________________________________________________________________________
batch_normalization_26 (BatchNo (None, 10, 128)      512         concatenate_11[0][0]             
__________________________________________________________________________________________________
batch_normalization_27 (BatchNo (None, 10, 128)      512         conv1d_76[0][0]                  
__________________________________________________________________________________________________
activation_23 (Activation)      (None, 10, 128)      0           batch_normalization_26[0][0]     
__________________________________________________________________________________________________
add_6 (Add)                     (None, 10, 128)      0           batch_normalization_27[0][0]     
                                                                 activation_23[0][0]              
__________________________________________________________________________________________________
activation_24 (Activation)      (None, 10, 128)      0           add_6[0][0]                      
__________________________________________________________________________________________________
global_average_pooling1d_2 (Glo (None, 128)          0           activation_24[0][0]              
__________________________________________________________________________________________________
dense_3 (Dense)                 (None, 4)            516         global_average_pooling1d_2[0][0] 
==================================================================================================
Total params: 499,332
Trainable params: 497,284
Non-trainable params: 2,048
__________________________________________________________________________________________________
None
2022-06-17 14:09:52.353015: I tensorflow/core/profiler/lib/profiler_session.cc:164] Profiler session started.
…
1667/1667 [==============================] - 41s 25ms/step - loss: 9.8955e-04 - accuracy: 0.9998 - val_loss: 407.8485 - val_accuracy: 0.5838
Epoch 100/100
1667/1667 [==============================] - 42s 25ms/step - loss: 7.8206e-04 - accuracy: 0.9999 - val_loss: 734.3737 - val_accuracy: 0.5744
Model: "functional_15"
_________________________________________________________________
Layer (type)                 Output Shape              Param #   
=================================================================
input_8 (InputLayer)         [(None, 10, 38)]          0         
_________________________________________________________________
flatten_2 (Flatten)          (None, 380)               0         
_________________________________________________________________
dropout_4 (Dropout)          (None, 380)               0         
_________________________________________________________________
dense_10 (Dense)             (None, 500)               190500    
_________________________________________________________________
dropout_5 (Dropout)          (None, 500)               0         
_________________________________________________________________
dense_11 (Dense)             (None, 500)               250500    
_________________________________________________________________
dropout_6 (Dropout)          (None, 500)               0         
_________________________________________________________________
dense_12 (Dense)             (None, 500)               250500    
_________________________________________________________________
dropout_7 (Dropout)          (None, 500)               0         
_________________________________________________________________
dense_13 (Dense)             (None, 4)                 2004      
=================================================================
Total params: 693,504
Trainable params: 693,504
Non-trainable params: 0
_________________________________________________________________
None
2022-06-17 16:24:31.429600: I tensorflow/core/profiler/lib/profiler_session.cc:164] Profiler session started.
2022-06-17 16:24:31.429766: E tensorflow/core/profiler/internal/gpu/cupti_tracer.cc:1441] function cupti_interface_->Subscribe( &subscriber_, (CUpti_CallbackFunc)ApiCallback, this)failed with error CUPTI could not be loaded or symbol could not be found.
…
